Model
Model: "sequential_17"
________________________________________________________________________________
Layer (type)                        Output Shape                    Param #     
================================================================================
conv2d_17 (Conv2D)                  (None, 24, 24, 20)              520         
________________________________________________________________________________
batch_normalization_12 (BatchNormal (None, 24, 24, 20)              80          
________________________________________________________________________________
max_pooling2d_17 (MaxPooling2D)     (None, 12, 12, 20)              0           
________________________________________________________________________________
flatten_17 (Flatten)                (None, 2880)                    0           
________________________________________________________________________________
dense_34 (Dense)                    (None, 100)                     288100      
________________________________________________________________________________
dropout_9 (Dropout)                 (None, 100)                     0           
________________________________________________________________________________
dense_35 (Dense)                    (None, 10)                      1010        
================================================================================
Total params: 289,710
Trainable params: 289,670
Non-trainable params: 40
________________________________________________________________________________


