Model
Model: "sequential_8"
________________________________________________________________________________
Layer (type)                        Output Shape                    Param #     
================================================================================
conv2d_8 (Conv2D)                   (None, 24, 24, 20)              520         
________________________________________________________________________________
batch_normalization_3 (BatchNormali (None, 24, 24, 20)              80          
________________________________________________________________________________
max_pooling2d_8 (MaxPooling2D)      (None, 12, 12, 20)              0           
________________________________________________________________________________
flatten_8 (Flatten)                 (None, 2880)                    0           
________________________________________________________________________________
dense_16 (Dense)                    (None, 100)                     288100      
________________________________________________________________________________
dropout (Dropout)                   (None, 100)                     0           
________________________________________________________________________________
dense_17 (Dense)                    (None, 10)                      1010        
================================================================================
Total params: 289,710
Trainable params: 289,670
Non-trainable params: 40
________________________________________________________________________________


