Model
Model: "sequential_11"
________________________________________________________________________________
Layer (type)                        Output Shape                    Param #     
================================================================================
conv2d_11 (Conv2D)                  (None, 24, 24, 20)              520         
________________________________________________________________________________
batch_normalization_6 (BatchNormali (None, 24, 24, 20)              80          
________________________________________________________________________________
max_pooling2d_11 (MaxPooling2D)     (None, 12, 12, 20)              0           
________________________________________________________________________________
flatten_11 (Flatten)                (None, 2880)                    0           
________________________________________________________________________________
dense_22 (Dense)                    (None, 100)                     288100      
________________________________________________________________________________
dropout_3 (Dropout)                 (None, 100)                     0           
________________________________________________________________________________
dense_23 (Dense)                    (None, 10)                      1010        
================================================================================
Total params: 289,710
Trainable params: 289,670
Non-trainable params: 40
________________________________________________________________________________


