Model
Model: "sequential_6"
________________________________________________________________________________
Layer (type)                        Output Shape                    Param #     
================================================================================
conv2d_6 (Conv2D)                   (None, 24, 24, 20)              520         
________________________________________________________________________________
max_pooling2d_6 (MaxPooling2D)      (None, 12, 12, 20)              0           
________________________________________________________________________________
flatten_6 (Flatten)                 (None, 2880)                    0           
________________________________________________________________________________
dense_12 (Dense)                    (None, 100)                     288100      
________________________________________________________________________________
dense_13 (Dense)                    (None, 10)                      1010        
================================================================================
Total params: 289,630
Trainable params: 289,630
Non-trainable params: 0
________________________________________________________________________________


