Model
Model: "sequential_18"
________________________________________________________________________________
Layer (type)                        Output Shape                    Param #     
================================================================================
conv2d_18 (Conv2D)                  (None, 24, 24, 20)              520         
________________________________________________________________________________
batch_normalization_13 (BatchNormal (None, 24, 24, 20)              80          
________________________________________________________________________________
max_pooling2d_18 (MaxPooling2D)     (None, 12, 12, 20)              0           
________________________________________________________________________________
flatten_18 (Flatten)                (None, 2880)                    0           
________________________________________________________________________________
dense_36 (Dense)                    (None, 100)                     288100      
________________________________________________________________________________
dropout_10 (Dropout)                (None, 100)                     0           
________________________________________________________________________________
dense_37 (Dense)                    (None, 10)                      1010        
================================================================================
Total params: 289,710
Trainable params: 289,670
Non-trainable params: 40
________________________________________________________________________________


